model.onnx (onnx, 368544 bytes, 8 tensors)

conv1.weight f4 [6, 3, 5, 5]
0	0xbd9470e1	-0.072480924
1	0xbc1ef722	-0.009702476
2	0x3e0fac36	0.14030537
3	0xbda93a53	-0.082630776
4	0xbe0866e1	-0.13320495
5	0xbdfaedf7	-0.122524194
6	0x3cda96c5	0.02668322
7	0xbad62ce3	-0.0016340282
8	0xbc8e016e	-0.017334666
9	0xbd35e39a	-0.04440651
10	0xbe66ab47	-0.22526275
11	0xbd58199e	-0.052758805
12	0xbe28efbe	-0.16497704
13	0xbceb1bd6	-0.028699797
14	0xbe15eaa2	-0.14640287
15	0xbe89d774	-0.2692219
16	0xbe929699	-0.28630522
17	0xbe838fac	-0.2569555
18	0xbe8cd2e0	-0.27504635
19	0xbc40cebc	-0.011768039
20	0xbe97a79a	-0.29620057
21	0xbe9c68e3	-0.30548772
22	0xbe31a27b	-0.17347138
23	0xbe468d6d	-0.19389887
24	0xbd052c8a	-0.03251318
25	0x3d93a8e4	0.07209948
26	0x3e3b798e	0.18308088
27	0x3e82c957	0.25544235
28	0x3d82d05a	0.06387396
29	0x3cc19615	0.023631135
30	0xbd11ab68	-0.035563856
31	0x3dbc2761	0.091871984
32	0x3e611af4	0.21982938
33	0x3dee5c5e	0.116387114
34	0x3dd96807	0.10615545
35	0xbd929fa1	-0.07159353
36	0x3d1630fb	0.036667805
37	0x3dc43195	0.095797695
38	0x3a537df0	0.00080677774
39	0x3e0dd8a7	0.13852178
40	0xbe2e4109	-0.17016996
41	0xbcd89ee9	-0.026442962
42	0xbca2d8d6	-0.019878786
43	0xbdefbb82	-0.11705686
44	0x3d81de2f	0.06341206
45	0xbdd0798b	-0.101794325
46	0x3c404d83	0.01173723
47	0xbd8a9985	-0.06767563
48	0xbe204174	-0.15649968
49	0x3d22a3fb	0.039707165
50	0x3e627eb9	0.22118653
51	0x3e992543	0.2991124
52	0x3e8ce1e9	0.27516106
53	0x3e77ac3b	0.24186794
54	0x3da24b2b	0.079244934
55	0x3e685d5d	0.22691865
56	0x3e5fafec	0.21844453
57	0x3e507452	0.20356873
58	0x3e5537f6	0.20822129
59	0xbc9b3c5b	-0.018949678
60	0x3e3d1262	0.18464044
61	0x3e1b4fbc	0.15167135
62	0x3de658ea	0.11247428
63	0x3d400856	0.04688295
64	0x3cc00472	0.02343962
65	0x3bf4dc33	0.007472539
66	0x3e34b7d8	0.17648256
67	0x3e095120	0.13409853
68	0xbcfcb7be	-0.030849334
69	0x3dff6415	0.12470261
70	0x3ddc8fd9	0.10769624
71	0xbcdb658a	-0.026781816
72	0x3da8d6d4	0.082441
73	0xbd4aa64f	-0.04947501
74	0x3da704e2	0.08155228
75	0x3d9f5c07	0.07781225
76	0xbd13a432	-0.03604526
77	0xbd946a25	-0.07246808
78	0xbca4a476	-0.020097952
79	0xbdefc7a3	-0.117079996
80	0x3c6553c8	0.013997026
81	0xbd0baee5	-0.03410234
82	0xbdd646f0	-0.10462749
83	0xbc8b7892	-0.017025266
84	0xbdac1a87	-0.08403497
85	0xbd8e2479	-0.0694055
86	0x3ce9d56d	0.028544152
87	0x3ca283a9	0.019838171
88	0xbd4d79ea	-0.050165094
89	0x3dc4aead	0.09603629
90	0xbd80dfb1	-0.06292666
91	0x3ce1f46e	0.027582373
92	0x3cb93da0	0.022612393
93	0xbdcb40b8	-0.099244535
94	0xbdf42413	-0.11920943
95	0xbd988417	-0.07447069
96	0x3dba05e4	0.09083155
97	0xbd1e8e35	-0.038709838
98	0x3bfdae91	0.007741757
99	0x3bc20a55	0.005921642
100	0x3d8db38a	0.0691901
101	0xbdf4d4c8	-0.11954647
102	0x3d60dc14	0.054897383
103	0x3d59bcdb	0.053158622
104	0xbd0b643f	-0.03403115
105	0x3cc0f54a	0.023554463
106	0xbac9a44f	-0.0015384051
107	0x3d3c67d1	0.045997445
108	0x3b964fe9	0.0045871628
109	0x3d24a9f1	0.04020113
110	0x3aed2180	0.0018091649
111	0xbdef5366	-0.11685829
112	0xbda1cda9	-0.07900555
113	0x3d39f26f	0.04539722
114	0x3d4ccfb4	0.05000277
115	0xbdfb6823	-0.12275722
116	0xbccde444	-0.02513326
117	0xbdcee4c4	-0.10102227
118	0xbdc92526	-0.098215386
119	0x3d87a283	0.066227935
120	0xbd5b3511	-0.053517405
121	0x3d86362d	0.06553302
122	0xbde29963	-0.110644124
123	0xbd06981a	-0.0328599
124	0x3d4f332d	0.050585914
125	0xbd4964f5	-0.049168546
126	0xbd6d3162	-0.057908423
127	0xbafd3f8c	-0.0019321307
128	0xbc0b71ee	-0.00851105
129	0x3db97de9	0.090572186
130	0x3d8224b0	0.06354654
131	0xbcc07a23	-0.02349574
132	0xbda1c092	-0.07898058
133	0x3d202500	0.039097786
134	0xbcf0eff2	-0.02941129
135	0xbdf7142b	-0.120643936
136	0x3dcdcbef	0.10048663
137	0xbd84ebcd	-0.06490288
138	0xbd488f1d	-0.04896461
139	0xbdb17aa0	-0.08665967
140	0x3d0dfb17	0.034663286
141	0x3ca2b8f0	0.019863576
142	0xbd80d9ed	-0.06291566
143	0x3d4d1069	0.050064478
144	0x3d4605d8	0.048345417
145	0x3c3e20bf	0.011604487
146	0x3db38f17	0.087675266
147	0x3d001de9	0.031278525
148	0x3d337da3	0.04382099
149	0xbd996268	-0.07489473
150	0xbda9689b	-0.08271905
151	0x3dd60936	0.104509756
152	0x3d495b23	0.04915918
153	0xbd575b97	-0.05257758
154	0xbdfede31	-0.124447234
155	0x3d02e60e	0.03195768
156	0x3db41da7	0.08794718
157	0x3ec74a85	0.3892404
158	0x3ecf6879	0.40509394
159	0x3d72c0b2	0.0592658
160	0x3d030691	0.031988684
161	0x3e109223	0.14118247
162	0x3f0e3b85	0.5555957
163	0x3f0844dc	0.5323007
164	0x3e92aa98	0.28645778
165	0xbdcc6090	-0.09979355
166	0x3df9b210	0.12192166
167	0x3e953c43	0.2914754
168	0x3f1f987c	0.6234205
169	0x3dcaff57	0.099119835
170	0xbe64b5dc	-0.22334999
171	0xbe17b7d9	-0.14816226
172	0x3e4dba48	0.20090592
173	0x3e50613f	0.20349596
174	0xbdb9cd58	-0.09072369
175	0xbe0e35b3	-0.13887672
176	0x3d699199	0.05702362
177	0x3ed76a0a	0.4207309
178	0x3ebd738e	0.37002224
179	0x3e3c1301	0.18366624
180	0xbdac669d	-0.084180094
181	0x3eb64c13	0.35604915
182	0x3eef43a4	0.46731293
183	0x3f19aa4d	0.60025483
184	0x3ecb455e	0.3970136
185	0x3d69d2aa	0.05708567
186	0x3ed8f527	0.42374536
187	0x3f254e5a	0.6457268
188	0x3f3e20c1	0.7426873
189	0x3ed28e45	0.41124168
190	0xbd0de178	-0.034638852
191	0x3e8e3653	0.2777582
192	0x3ee5ff14	0.44921172
193	0x3f01a3d3	0.506406
194	0x3e6caa87	0.23111926
195	0xbe7af99a	-0.24509278
196	0x3d8513bd	0.064979054
197	0x3e966cb7	0.29379818
198	0x3ea7849a	0.32718354
199	0x3e333b38	0.17503059
200	0xbdea65b4	-0.114451796
201	0x3d2a8f1a	0.04164038
202	0x3e256a04	0.16153723
203	0x3e889ee1	0.26683715
204	0x3beab397	0.007162522
205	0x3dd7c68e	0.10535918
206	0x3ea69fc6	0.32543772
207	0x3efd176e	0.49431938
208	0x3f0a34d7	0.5398688
209	0x3ddd8301	0.10816003
210	0xbd7b59a1	-0.061364774
211	0x3e90de2a	0.28294498
212	0x3eff4d1e	0.49863523
213	0x3ef17dd4	0.47166312
214	0x3e8e27db	0.27764782
215	0x3d0cc76a	0.034369864
216	0x3e8b0f81	0.27160266
217	0x3ef45287	0.47719213
218	0x3ef99755	0.4874827
219	0x3e1205f4	0.14260083
220	0xbdb841a4	-0.08996895
221	0x3df40015	0.11914078
222	0x3db533b5	0.08847753
223	0x3e7dcabc	0.24784368
224	0xbe05ed54	-0.13078815
225	0xbdbe3511	-0.09287465
226	0xbe90c605	-0.28276077
227	0xbe127f6d	-0.14306422
228	0xbe31e740	-0.17373371
229	0xbc93c3e4	-0.018037744
230	0xbd6c57fa	-0.05770109
231	0x3c653c95	0.013991495
232	0xbb627a32	-0.0034557697
233	0xbdad4f34	-0.084623724
234	0x3d9b9db7	0.07598441
235	0xbe00d349	-0.12580599
236	0x3da9a914	0.08284202
237	0x3dd0e43e	0.10199784
238	0x3e8b9c8f	0.27267882
239	0x3e3c784f	0.18405269
240	0x3dbab6cb	0.09116896
241	0x3e3d140b	0.18464677
242	0x3e1914b9	0.14949311
243	0x3e976a83	0.2957345
244	0x3e2d805a	0.16943493
245	0xbbdedb0c	-0.0068010148
246	0x3e3eb7b0	0.18624759
247	0x3e1fc33b	0.15601818
248	0x3ea77c39	0.32711962
249	0x3e8f6ff9	0.28015116
250	0xbeac2fc4	-0.33630192
251	0xbe9f2a34	-0.31086886
252	0xbe0b9701	-0.13631822
253	0xbd491feb	-0.049102705
254	0xbd8c6e78	-0.06857008
255	0xbe895169	-0.26819924

conv1.bias f4 [6]
0	0x3e755bc2	0.23960784
1	0xbd5168b3	-0.05112524
2	0x3d8da830	0.06916845
3	0xbe439fd0	-0.19103932
4	0xbe14f3f8	-0.14546192
5	0x3e0b3dd4	0.13597804

conv2.weight f4 [16, 6, 5, 5]
0	0x3de647ee	0.11244188
1	0xbdb786b1	-0.08961237
2	0xbdadcdc7	-0.084865145
3	0xbda4f514	-0.080545574
4	0xbe32bb6d	-0.1745431
5	0x3e6f0672	0.23342302
6	0x3dac2141	0.0840478
7	0x3d85781a	0.06517048
8	0xbe2ac0b5	-0.16675074
9	0x3cb6f5a0	0.02233392
10	0x3e16f08c	0.14740199
11	0x3cf30834	0.029666997
12	0xbb8fa38b	-0.0043835095
13	0x3d853988	0.06505114
14	0x3dd050b8	0.10171646
15	0x3e4074e7	0.18794595
16	0x3e309789	0.17245306
17	0x3e6db647	0.23214065
18	0x3e5af9a3	0.21384291
19	0x3e35bacc	0.17747039
20	0x3e13207b	0.14367859
21	0x3da3770f	0.07981693
22	0x3e7b50ad	0.24542494
23	0x3ea0df04	0.31420147
24	0x3ea1cb3f	0.31600377
25	0x3cbd1d93	0.023085391
26	0xbd9aeae5	-0.07564334
27	0x3cd0e75c	0.025500946
28	0xbcdd2003	-0.026992803
29	0xbc55c353	-0.013047057
30	0xbbaf0ed8	-0.0053423457
31	0xbccdf937	-0.025143249
32	0x3d8d418e	0.06897269
33	0x3d151789	0.036399398
34	0x3d4a0030	0.049316585
35	0x3c91676d	0.017749513
36	0x3cdbd989	0.026837127
37	0x3c232fe7	0.009960151
38	0x3c654a3d	0.013994751
39	0xbd9438a9	-0.072373696
40	0xbd9a3996	-0.07530515
41	0xbd9456f6	-0.07243149
42	0xbb5f3d00	-0.0034063458
43	0xbd8f3eeb	-0.069944225
44	0x3c2a5961	0.010397286
45	0x3d1fc406	0.039005302
46	0xbd9d773f	-0.0768876
47	0xbd0c0c71	-0.034191553
48	0xbd56fce4	-0.05248727
49	0x3d749572	0.059712835
50	0x3d255875	0.040367562
51	0xbda318d2	-0.079637185
52	0xbe34a99b	-0.17642824
53	0xbc9c9d0b	-0.019117853
54	0xbd825663	-0.06364133
55	0x3d40cd60	0.04707086
56	0xbb77f57f	-0.0037835536
57	0xbdde418f	-0.10852348
58	0xbc83264e	-0.016009476
59	0xbdb9a102	-0.09063913
60	0x3d635056	0.055496536
61	0xbd4bf5ee	-0.049795084
62	0x3d794cd2	0.060864277
63	0x3e4adb55	0.19810231
64	0x3c67d5da	0.014150107
65	0x3d37b457	0.04484972
66	0x3ce634a4	0.028101273
67	0x3da2d621	0.07950998
68	0x3de14290	0.10999024
69	0x3e51a921	0.20474674
70	0xbd2c4d13	-0.04206569
71	0xbd64c53e	-0.055852167
72	0xbc653403	-0.013989451
73	0xbccd5a96	-0.025067609
74	0xbcb3cad2	-0.021947298
75	0x3bb32d90	0.005468078
76	0xbd5f78a8	-0.054558426
77	0xbdfcabb2	-0.12337436
78	0x3c4285f5	0.011872758
79	0x3dbd5d7c	0.09246346
80	0xbb59dcdb	-0.0033243212
81	0xbe385bbf	-0.18003748
82	0x3d773700	0.060355186
83	0x3df95ed7	0.121762924
84	0x3d47d3b6	0.048785888
85	0xbdae1770	-0.08500564
86	0xbdf12ca9	-0.117760964
87	0x3e3737a5	0.1789232
88	0x3e97b22d	0.29628125
89	0x3e4090de	0.18805262
90	0xbdbb3810	-0.091415524
91	0xbe16c94d	-0.14725228
92	0x3ddf72dd	0.1091058
93	0x3dc7b8cd	0.09752045
94	0xbc32eee4	-0.010921214
95	0xbdf6df37	-0.120542936
96	0xbe2a4ecb	-0.1663162
97	0xbe9a815d	-0.3017682
98	0xbec52121	-0.38501838
99	0xbec78d2e	-0.389749
100	0x3c290172	0.010315286
101	0xbbccdeda	-0.006252152
102	0xbe2f47ce	-0.17117235
103	0xbde32fd6	-0.11093108
104	0xbe2030e6	-0.15643653
105	0xbd989f71	-0.07452286
106	0xbd425878	-0.04744765
107	0x3d6eab61	0.05826891
108	0xbcc9b3bf	-0.024621842
109	0xbd88b495	-0.06675068
110	0xbce6e42b	-0.02818497
111	0x3d52bd22	0.051449902
112	0x3da34980	0.079730034
113	0x3e41d3af	0.18928407
114	0x3de1f450	0.11032927
115	0xbde96b3a	-0.11397405
116	0xbe289f24	-0.16466957
117	0x3d9ade3a	0.075619176
118	0x3dea56bf	0.11442327
119	0x3d5d8ae1	0.054087523
120	0xbe6bae90	-0.23015809
121	0xbea1ae5f	-0.31578347
122	0xbe8b6fe5	-0.27233806
123	0xbea7191f	-0.32636353
124	0xbee9b49e	-0.45645612
125	0xbe7f4d4f	-0.24931835
126	0xbd55e9ea	-0.05222503
127	0x3e3bec7e	0.18351933
128	0x3e9c73a2	0.3055697
129	0x3ed7798a	0.42084914
130	0xbe8a4e0c	-0.2701267
131	0xbe46da62	-0.19419244
132	0x3df5c459	0.12000341
133	0x3e604087	0.21899615
134	0x3e2a3098	0.166201
135	0xbec4156f	-0.38297603
136	0xbe970b31	-0.29500726
137	0xbe63aa08	-0.2223283
138	0xbe60257d	-0.218893
139	0xbea4931c	-0.32143486
140	0xbd690a82	-0.056894787
141	0xbda801dd	-0.082034804
142	0x3d00e407	0.031467464
143	0xbd9a349b	-0.07529565
144	0xbafa480b	-0.0019094957
145	0x3d5d7531	0.05406684
146	0x3e4fd10c	0.20294589
147	0x3e2604a7	0.16212712
148	0x3e6a29fc	0.22867578
149	0x3ebc090e	0.36725658
150	0x3e0664f3	0.13124447
151	0x3dbec7fb	0.09315487
152	0xbe608a2d	-0.2192771
153	0xbe7e6368	-0.24842608
154	0xbe38ad12	-0.18034771
155	0xbd30f076	-0.04319807
156	0x3bc4ba02	0.006003619
157	0xbc8c4a5a	-0.017125297
158	0xbe4648b7	-0.19363676
159	0xbd8ee12e	-0.06976543
160	0x3ddc3f1b	0.10754224
161	0x3de8affb	0.113616906
162	0x3e17743f	0.14790438
163	0x3dc41b46	0.095755145
164	0xbe3b1a2d	-0.18271704
165	0x3e263586	0.16231355
166	0x3de2b558	0.11069745
167	0x3e8f66a7	0.28008005
168	0x3e9018f3	0.28144035
169	0x3d16bcca	0.036801137
170	0xbdd14269	-0.10217745
171	0xbdd843ef	-0.10559832
172	0x3e2a8234	0.16651231
173	0x3e8990ac	0.26868188
174	0x3e679c2f	0.22618173
175	0xbc638e8c	-0.013888966
176	0xbd298c26	-0.04139342
177	0x3d884e91	0.0665561
178	0x3c8bd648	0.01706995
179	0xbd91b6b9	-0.0711493
180	0x3d95986b	0.07304462
181	0xbd7b99dd	-0.061426032
182	0x3d0d9a14	0.03457077
183	0xbc8f87d1	-0.017520817
184	0xbd93302b	-0.07186922
185	0x3ca705f3	0.020388579
186	0xbd56b21b	-0.05241595
187	0xbd6cd61c	-0.057821378
188	0x3d829787	0.06376558
189	0xbba5f5c3	-0.0050646975
190	0xbccf7e0c	-0.025328659
191	0x3c1aa039	0.009437614
192	0x3c9510b1	0.018196436
193	0xbd199d74	-0.037503675
194	0xbb71cacf	-0.0036894565
195	0xbd1803e6	-0.037113093
196	0xbd3ac851	-0.045601193
197	0xbd752f85	-0.05985977
198	0xbd0e2a8c	-0.034708545
199	0xbbe4a828	-0.0069780536
200	0xbd510f86	-0.051040195
201	0xbc528da2	-0.012851151
202	0xbdfa5a71	-0.122242816
203	0xbde8ac96	-0.11361043
204	0xbd57c964	-0.052682295
205	0xbd024c5b	-0.0318111
206	0x3dc629bd	0.0967593
207	0x3e059326	0.13044414
208	0x3e018df1	0.12651803
209	0xbd13c86b	-0.036079805
210	0xbc604869	-0.013689139
211	0x3ddddb25	0.10832814
212	0x3e5df2b2	0.21674612
213	0x3e2815bb	0.1641454
214	0xbdb2d50c	-0.08732042
215	0xbe10bddf	-0.1413493
216	0xbd615286	-0.05501034
217	0x3e178d6f	0.14800046
218	0x3e05383d	0.13009734
219	0x3d9fb38d	0.077979185
220	0xbabe9006	-0.0014538772
221	0xbe3745b8	-0.1789769
222	0xbd32e3de	-0.043674342
223	0x3d64c49a	0.055851556
224	0x3c46e327	0.012139118
225	0xbd7b76bc	-0.06139253
226	0x3d0878a7	0.033318188
227	0x3dca45be	0.098765835
228	0x3da99c38	0.082817495
229	0xbc90166f	-0.017588822
230	0xbc2f79f3	-0.010710227
231	0x3d9e483c	0.07728621
232	0x3e890137	0.2675874
233	0x3d45de19	0.048307512
234	0xbce174bb	-0.027521482
235	0xbe349e6b	-0.17638557
236	0xbde00630	-0.1093868
237	0x3e10a18c	0.14124125
238	0x3bfbbb5f	0.0076822485
239	0xbb32150d	-0.0027173192
240	0xbe2bde72	-0.16784075
241	0xbe1a04ca	-0.1504089
242	0xbc9626ae	-0.01832899
243	0xbce84c15	-0.028356591
244	0x3a1f3ce3	0.00060744415
245	0x3c71050b	0.014710675
246	0xbc35b0a9	-0.011089482
247	0xbe96bee8	-0.29442525
248	0xbe48170a	-0.19540039
249	0xbd94ca41	-0.07265139
250	0xbd96c52f	-0.073618285
251	0x3d278f3f	0.040908094
252	0x3dfb7644	0.12278417
253	0x3e2a3f29	0.16625656
254	0x3dbcbf5e	0.09216188
255	0x3dbaf9c8	0.09129673

conv2.bias f4 [16]
0	0x3ea34991	0.31892064
1	0x3e21e591	0.15810229
2	0xbcade35b	-0.021226576
3	0x3e5852c0	0.21125317
4	0x3e79a7c0	0.24380398
5	0x3e2ff2ea	0.17182508
6	0x3e85a180	0.26099777
7	0xbd00cc0f	-0.031444605
8	0xbcfa6862	-0.030567352
9	0xbdccd61a	-0.10001774
10	0xbdf39025	-0.11892728
11	0x3cffda05	0.03123189
12	0x3e62aff9	0.2213744
13	0x3ab72f69	0.0013975921
14	0x3e09719c	0.13422245
15	0x3be4db4f	0.0069841514

linear1.weight f4 [200, 400]
0	0xbb8235bb	-0.0039736903
1	0xbbaf9808	-0.0053586997
2	0xbd8c38bb	-0.06846758
3	0x3d8adbaf	0.067801826
4	0x3d0c3d6f	0.034238275
5	0xbc12ca54	-0.008959372
6	0x3d777b65	0.060420413
7	0xbd4883ae	-0.048953705
8	0xbdfe517a	-0.12417884
9	0xbdb5c3a3	-0.08875205
10	0x3dd15c00	0.10222626
11	0x3df4fe5c	0.11962578
12	0x3f018731	0.5059691
13	0x3e27c58c	0.16383952
14	0xbc282a57	-0.010264001
15	0x3e81eb0d	0.25374642
16	0x3dca6c9c	0.09883997
17	0x3d558d74	0.052136853
18	0xbc2bd01d	-0.01048663
19	0x3c2a17df	0.010381668
20	0x3d996512	0.07489981
21	0xbe29f8f1	-0.1659887
22	0xbc5932dc	-0.013256755
23	0xbe442b90	-0.19157243
24	0xbe070fbb	-0.13189594
25	0x3c9cdf8c	0.019149564
26	0x3d073dc6	0.033017896
27	0x3cfe8ae2	0.031072084
28	0x3c9c361e	0.019068774
29	0x3cda71e3	0.026665634
30	0x3c5da23a	0.013527447
31	0x3b01b8f4	0.0019794079
32	0x3d8e361d	0.06943915
33	0xbd469f00	-0.048491478
34	0x3d23a4ee	0.03995221
35	0x3dede31c	0.11615583
36	0x3c36216c	0.011116367
37	0x3e8f07d6	0.27935666
38	0x3de0b80e	0.10972606
39	0x3aaef919	0.0013349383
40	0x3d8b0796	0.06788556
41	0xbd07cafe	-0.033152573
42	0xbe0ef80c	-0.1396181
43	0xbcd8370f	-0.026393441
44	0x3bb191b6	0.0054189814
45	0xbb3dd609	-0.0028966686
46	0xbdcb94ea	-0.099405125
47	0xbe80e11d	-0.25171748
48	0xbe0cd6ab	-0.13753764
49	0xbd977888	-0.073960364
50	0xbdde136e	-0.1084355
51	0xbdd8bc8e	-0.10582839
52	0xbc90babc	-0.017667167
53	0xbd15a96d	-0.03653853
54	0x3cede639	0.029040443
55	0xbe152580	-0.14565086
56	0xbd9a49cc	-0.07533607
57	0xbd64328d	-0.05571227
58	0x3dc73b47	0.09728103
59	0x3d975718	0.07389659
60	0xbe1d958a	-0.15389076
61	0x3d995bd0	0.07488215
62	0x3d8000c1	0.06250144
63	0xbd29b474	-0.04143186
64	0xbd6151b3	-0.055009555
65	0x3cbd605a	0.023117233
66	0xbcfc8938	-0.03082715
67	0x3e097f5c	0.1342749
68	0x3daedabe	0.085378155
69	0x3db05d82	0.08611585
70	0xbc921c5c	-0.017835788
71	0xbdebdc02	-0.115165725
72	0xbe1fbd99	-0.1559967
73	0xbd72077d	-0.059089173
74	0x3cde8c85	0.027166614
75	0xbd9b0a1a	-0.07570286
76	0xbddce3c8	-0.10785633
77	0xbcf8f7d4	-0.030391611
78	0xbbd21693	-0.0064113825
79	0x3dabd56f	0.083903186
80	0xbe322360	-0.17396307
81	0xbd282ad1	-0.041056458
82	0x3d56c064	0.05242957
83	0xbdd20a01	-0.10255814
84	0xbc1984eb	-0.009370069
85	0x3d731a0e	0.05935102
86	0xbc710a6a	-0.014711956
87	0x3e17def0	0.14831138
88	0xbd60aa89	-0.054850135
89	0x3da38c66	0.07985763
90	0xbd964239	-0.0733685
91	0xbd82d0f9	-0.063875146
92	0xbd384dce	-0.044996075
93	0xbd7648c2	-0.06012798
94	0x3cbeeb42	0.023305539
95	0xbd650e04	-0.05592157
96	0xbdb9c308	-0.090704024
97	0x3e1ac415	0.15113862
98	0x3da5394f	0.08067571
99	0x3d2ddb5a	0.042445518
100	0xbda80eb6	-0.08205931
101	0x3d3d1707	0.04616454
102	0x3ca4fb6d	0.02013942
103	0x3c67514e	0.014118506
104	0x3d81797a	0.06321998
105	0xbd18cb31	-0.037303153
106	0x3db44b9b	0.08803483
107	0xbce1e4fb	-0.027575007
108	0xbdefb2ca	-0.11704023
109	0xbc4cf648	-0.01250989
110	0x3d3e019c	0.046388254
111	0x3e04e2dd	0.12977166
112	0x3e8f3f4f	0.27977988
113	0x3e441582	0.1914883
114	0x3e03cf2b	0.12871997
115	0x3c270e1a	0.010196233
116	0x3da08c90	0.0783931
117	0x3e406447	0.18788253
118	0x3e3b6495	0.18300088
119	0x3dbdfafb	0.09276386
120	0xbd991ab7	-0.074757986
121	0xbcdd364f	-0.027003435
122	0x3d210d5d	0.039319385
123	0xbd6033c5	-0.05473687
124	0xbdc59fc0	-0.096496105
125	0x3d18d6c7	0.037314203
126	0x3da53c67	0.080681615
127	0x3d659a13	0.05605514
128	0x3c0cbe38	0.008590274
129	0xbe6201fe	-0.22071072
130	0x3ca71a0b	0.02039816
131	0x3d283efa	0.041075684
132	0xbd8aaf08	-0.06771666
133	0x3da3d179	0.07998938
134	0xbdcff900	-0.10154915
135	0x3dcfc7e6	0.101455495
136	0x3ddb015d	0.106936194
137	0xbdd1e7f6	-0.10249321
138	0xbbeb8517	-0.0071874964
139	0x3c8ccc7b	0.017187348
140	0x3e5d71a3	0.2162538
141	0x3e2b8b82	0.16752437
142	0xbc7b490c	-0.01533724
143	0x3d9794e4	0.074014455
144	0xbd9e8594	-0.07740322
145	0x3e37fae4	0.17966801
146	0x3d90daf9	0.07073016
147	0xbe3936bd	-0.18087287
148	0xbd87ef4d	-0.0663744
149	0xbe34cea9	-0.1765696
150	0xbe017bc3	-0.12644868
151	0xbd9af4ce	-0.07566224
152	0xbd8e2095	-0.06939808
153	0xbd31677f	-0.043311592
154	0x3cc38859	0.023868727
155	0x3d7b99fa	0.06142614
156	0x3cc33719	0.023829984
157	0x3e17dbff	0.14830016
158	0xbd86033a	-0.06543584
159	0xbd7745c7	-0.06036928
160	0x3c38373e	0.0112436395
161	0x3bce5f7e	0.0062980046
162	0xbcb2f953	-0.021847403
163	0x3da424d6	0.080148384
164	0xbd50f79f	-0.0510174
165	0xbd82abe9	-0.063804455
166	0xbcc9ca7c	-0.024632685
167	0xbe352f22	-0.17693761
168	0xbda265c1	-0.07929564
169	0x3ddf773d	0.10911415
170	0xbd07224f	-0.032991704
171	0x3d62bad9	0.055353973
172	0x3da275c0	0.07932615
173	0x3dbff90e	0.09373675
174	0x3ad85c22	0.001650695
175	0x3df9b99a	0.12193604
176	0x3d33b87d	0.043877114
177	0xbdd85533	-0.105631255
178	0xba9a3c8a	-0.001176731
179	0xbc5ee223	-0.01360372
180	0x3d922f25	0.07137898
181	0xbdb58aad	-0.08864341
182	0xbdbffcac	-0.09374365
183	0xbcd4f5c3	-0.025996095
184	0xbdad7b17	-0.08470743
185	0x3cd55d04	0.02604533
186	0xbe207071	-0.15667893
187	0x3d76c2a2	0.06024421
188	0xbd192e98	-0.03739795
189	0xbd4358f1	-0.047692243
190	0x3d58010b	0.05273537
191	0xbdce4d03	-0.100732826
192	0xbe2ba6ec	-0.16762894
193	0x3d59a0ac	0.053131744
194	0x3d13db71	0.036097948
195	0x3e320d27	0.1738783
196	0xbd4a6f7f	-0.049422737
197	0x3be2fe0e	0.0069272583
198	0xbe4fb26e	-0.2028291
199	0xbde60504	-0.112314254
200	0x3e24f452	0.16108826
201	0x3e014024	0.12622124
202	0x3d208026	0.039184712
203	0x3e0fbc5a	0.14036694
204	0x3c12d0b8	0.008960895
205	0x3db1ed73	0.08687868
206	0x3deacb8b	0.11464604
207	0xbd5939b3	-0.053033542
208	0x3d335c22	0.043789037
209	0x3d07e3a5	0.033176083
210	0x3d5993b9	0.053119395
211	0x3c0421b3	0.008064675
212	0x3d3cb385	0.04606964
213	0xbda4e41e	-0.080513224
214	0x3dabc421	0.08387018
215	0x3d6933b9	0.056934092
216	0x3d5081da	0.050905086
217	0x3e0d1086	0.13775834
218	0xbcc5ac55	-0.024130026
219	0x3d1ec226	0.038759373
220	0xbcce9b9a	-0.025220681
221	0xbdc4d54d	-0.096109964
222	0x3dc5c5a8	0.096568406
223	0xbe01665c	-0.12636703
224	0xbd2f40c3	-0.04278637
225	0xbd9f90f9	-0.07791323
226	0xbd562aef	-0.05228704
227	0x3bba01b9	0.005676475
228	0x3d8acef9	0.06777758
229	0xbb5c58d6	-0.0033622286
230	0x3c858fda	0.016303945
231	0x3d0ae4c2	0.033909567
232	0x3b851763	0.004061626
233	0x3b19e807	0.0023484246
234	0xbcee24c0	-0.029070258
235	0xbd9d0285	-0.07666496
236	0x3b2a12c3	0.0025951124
237	0x3dcbee9e	0.09957622
238	0xbd1dc861	-0.038521174
239	0xbb9a4c72	-0.00470882
240	0x3ddf170a	0.10893066
241	0x3d754826	0.05988326
242	0xbc81289d	-0.015766436
243	0x3e2e4f1a	0.17022362
244	0x3da5e1b5	0.08099691
245	0xbd88061f	-0.066417925
246	0x3d1533c6	0.036426328
247	0x3ad2d274	0.0016084448
248	0xbc2de6aa	-0.010614077
249	0x3ce3ce29	0.027808266
250	0xbd0bdbd7	-0.034145202
251	0xbd9fa404	-0.077949554
252	0xbdd526a6	-0.10407762
253	0xbdcaf129	-0.09909279
254	0xbda222cd	-0.07916794
255	0xbbac29b4	-0.005253995

linear1.bias f4 [200]
0	0x3ce5fdfa	0.028075207
1	0xbd25a37d	-0.040439118
2	0xbc337ac4	-0.010954563
3	0xbdd27272	-0.10275735
4	0x3dd6b814	0.10484329
5	0xbcb093b7	-0.02155481
6	0x3d68cdce	0.056836896
7	0x3c976098	0.018478677
8	0x3de4cd0c	0.11171922
9	0xbd640097	-0.055664625
10	0xbe0fb82c	-0.140351
11	0xbd4f6ae5	-0.050639052
12	0x3e323c2c	0.17405766
13	0x3daff59b	0.085917674
14	0x3e0444d7	0.12916885
15	0x3e1d222c	0.15345067
16	0xbbb8fe5d	-0.005645557
17	0x3db06f50	0.08614981
18	0x3e163d64	0.14671856
19	0xbcb36da5	-0.021902869
20	0xbb6048e9	-0.0034223145
21	0xbd676fde	-0.05650317
22	0x3c18eff2	0.009334551
23	0x3cdfd44e	0.027322914
24	0x3e05f5d3	0.13082056
25	0xbc9b71ef	-0.018975226
26	0x3e078c72	0.1323717
27	0x3c58c4d4	0.013230521
28	0x3e22302c	0.15838689
29	0xbd70aeb7	-0.05876037
30	0x3e649f18	0.22326314
31	0xbae68dc6	-0.0017589859
32	0xbcd8584a	-0.026409287
33	0x3d0be0d8	0.034149975
34	0x3d192211	0.037386004
35	0xbd0dec9a	-0.03464947
36	0xbc57309a	-0.013134146
37	0x3d3812cc	0.0449398
38	0x3dabba84	0.083851844
39	0x3d5f5711	0.054526392
40	0xbd4760c2	-0.04867626
41	0x3d924923	0.07142856
42	0xbcf7420b	-0.030182859
43	0x3bbe64a7	0.0058103385
44	0xbc8db77c	-0.017299406
45	0x3d39031e	0.04516899
46	0x3c937f48	0.018005028
47	0xbb9aa04a	-0.004718815
48	0x3e051c05	0.1299897
49	0x3e41b941	0.18918325
50	0xbc1af70d	-0.009458316
51	0x3de209e0	0.1103704
52	0x3da61252	0.08108963
53	0xbacfb588	-0.0015846947
54	0x3cd3259c	0.02577477
55	0xbc0a9cae	-0.008460207
56	0xbd5292f9	-0.051409695
57	0xbd0d7a95	-0.03454073
58	0x3d62b1c1	0.0553453
59	0x3db9a1b1	0.09064043
60	0xbd358a50	-0.04432136
61	0xbc9072f0	-0.017632931
62	0x3c4c848e	0.012482775
63	0x3c1458d3	0.0090543805
64	0x3dee7ef9	0.11645312
65	0x3d55d643	0.05220629
66	0x3ae971e2	0.0017810429
67	0xbbdf1460	-0.006807849
68	0xbc55024e	-0.013001038
69	0x3e26e6ef	0.16299032
70	0x3cc4cf30	0.024024576
71	0x3dfcc69f	0.123425715
72	0xbd4974e5	-0.049183745
73	0xbd68d0f6	-0.056839906
74	0xbd6c043b	-0.057621222
75	0x3e471131	0.19440152
76	0x3e2611c7	0.16217719
77	0x3df1b0af	0.11801278
78	0x3b842ac7	0.00403342
79	0x3d664aa8	0.05622354
80	0xbd2ec2e1	-0.04266632
81	0x3c952084	0.018203981
82	0x3e445e25	0.19176538
83	0xbd49bf06	-0.04925444
84	0x3d86ac17	0.06575792
85	0xbd520b7f	-0.051280495
86	0xbc8481b9	-0.016175138
87	0x3c1af53f	0.009457885
88	0xbd3e4624	-0.04645361
89	0x3dc1350f	0.09433948
90	0x3e2bbd3f	0.1677141
91	0x3c952623	0.018206662
92	0x3dde1ea0	0.10845685
93	0xbcdc4ddb	-0.026892593
94	0x3e481b8e	0.19541761
95	0x3e4bb49d	0.19893117
96	0xbb96ca54	-0.004601756
97	0x3d4b12c0	0.04957843
98	0x3ccdf0c4	0.02513922
99	0xbd1b38c7	-0.037895944
100	0x3c96b022	0.018394534
101	0x3dbe4e5a	0.09292288
102	0xbd68660a	-0.056737937
103	0xbd8078e6	-0.062730595
104	0xbde2fa68	-0.110829175
105	0xbd730b91	-0.059337202
106	0xbc6da771	-0.014505253
107	0x3bccea58	0.006253522
108	0x3d950408	0.072761595
109	0x3cc77552	0.024347935
110	0xbce9fed4	-0.028563894
111	0xbceb61b1	-0.028733106
112	0x3d9baca8	0.07601291
113	0xbce21179	-0.027596222
114	0x3daa2488	0.08307749
115	0xbd5e372b	-0.05425183
116	0x3e1502e8	0.1455189
117	0xbcf1f4e9	-0.029535728
118	0xbc0424fe	-0.00806546
119	0xbd3d7d4d	-0.046262074
120	0x3e5ca6ab	0.21547954
121	0x3e7d3c4a	0.2473003
122	0xbdddec30	-0.10836065
123	0x3e219d9e	0.15782782
124	0x3e07ec19	0.13273658
125	0x3df572f2	0.11984815
126	0x3c8a126a	0.016854484
127	0xbd47d98c	-0.048791453
128	0x3cf58b9b	0.029973796
129	0xbd01c5b2	-0.031682678
130	0xbd8639eb	-0.06554016
131	0x3d3fb333	0.046801757
132	0x3d6aedcf	0.0573557
133	0xbd348d30	-0.04407996
134	0x3c8a66aa	0.016894657
135	0xbd37057e	-0.044682972
136	0x3bc31530	0.0059534535
137	0x3da411e7	0.08011227
138	0x3cd7aa86	0.02632643
139	0xbd20b01e	-0.03923046
140	0x3d8ed79c	0.06974718
141	0x3c99edeb	0.018790206
142	0xbd4e91bf	-0.050431963
143	0x3df5b197	0.11996763
144	0xbc90860f	-0.01764205
145	0x3bbe1c0f	0.0058016847
146	0x3d8a9592	0.067668095
147	0xbd2c20cd	-0.04202347
148	0x3d9c3421	0.0762713
149	0x3cd4e7a9	0.02598937
150	0x3cd19594	0.02558402
151	0x3d9114a6	0.070840165
152	0xbd46b937	-0.04851648
153	0xbb875960	-0.0041305274
154	0xbd4b2249	-0.049593244
155	0x3e2f5d9b	0.17125551
156	0xbb1e4bdf	-0.002415411
157	0xbd40947e	-0.047016613
158	0x3cdbdcd7	0.026838703
159	0xbd358b64	-0.044322386
160	0xbb8f74d3	-0.00437794
161	0x3d8673a3	0.06565025
162	0x3e14d018	0.14532506
163	0x3c3844b1	0.011246846
164	0x3d472a58	0.048624367
165	0x3da1b720	0.078962564
166	0x3d175c7f	0.036953446
167	0x3d1c52cc	0.0381649
168	0xbda2d83d	-0.079514004
169	0x3e10094c	0.14066046
170	0xbc332b0f	-0.010935559
171	0x3cc42af4	0.023946263
172	0x3e1394bb	0.14412205
173	0x3db09843	0.086227916
174	0x3cc1143d	0.02356922
175	0x3dc0dbde	0.09416936
176	0x3e7fa154	0.24963886
177	0x3d558e37	0.05213758
178	0xba902899	-0.0010998427
179	0xbd64c938	-0.05585596
180	0xbdd506b9	-0.10401673
181	0x3b07ac33	0.0020702004
182	0x3d23e359	0.040011737
183	0x3d096484	0.033543125
184	0xbd221c0a	-0.03957752
185	0x3d64d5c6	0.055867933
186	0xbd28b2fe	-0.041186325
187	0xbcdbe59a	-0.026842881
188	0x3de7bda4	0.11315468
189	0x3bb7fadd	0.005614622
190	0x3cffe7ef	0.031238524
191	0x3cbc404e	0.022979882
192	0x3ce5e928	0.02806528
193	0x3ca14c92	0.019689832
194	0x3e25c6e7	0.16189156
195	0xbda3ecb3	-0.08004131
196	0x3e0c496b	0.13699882
197	0xbd039664	-0.032125846
198	0x3e0cb513	0.1374095
199	0x3daa9e1f	0.083309405

linear2.weight f4 [43, 200]
0	0x3db46936	0.0880913
1	0x3c719a8a	0.014746318
2	0xbe52ffa8	-0.20605338
3	0xbe849799	-0.2589691
4	0xbeb76c91	-0.35825017
5	0x3c1bee8d	0.009517324
6	0xbe154982	-0.14578822
7	0xbd9593de	-0.07303594
8	0xbe962c38	-0.2933061
9	0xbd64af2f	-0.05583113
10	0x3dfe0e6b	0.12405094
11	0xbdb123aa	-0.086493805
12	0xbd9eee78	-0.07760328
13	0xbd18cd7a	-0.037305333
14	0x3d6d4e26	0.057935856
15	0xbd458f73	-0.048232507
16	0xbd933313	-0.07187476
17	0xbe3c56a8	-0.18392432
18	0xbdea9c18	-0.11455554
19	0x3cbf1ada	0.023328234
20	0x3d06b883	0.032890808
21	0x3c625881	0.013815046
22	0xbd2bc76a	-0.041938223
23	0xbd88779a	-0.06663437
24	0xbd9c40e0	-0.076295614
25	0xbd06beb7	-0.032896724
26	0xbe3e9cb7	-0.1861447
27	0xbd870aef	-0.06593882
28	0xbe347cab	-0.17625682
29	0x3c65e121	0.014030726
30	0x3d9bdd8c	0.07610616
31	0xbd668adb	-0.056284767
32	0xbd164ebd	-0.036696184
33	0xbe08fb9a	-0.13377228
34	0x3bfec497	0.0077749
35	0xbd07d14a	-0.033158578
36	0xbcde7d52	-0.027159367
37	0xbe18812f	-0.1489303
38	0xbda3303e	-0.07968186
39	0xbd0fa0a4	-0.03506531
40	0xbdefa7df	-0.11701941
41	0xbb8ddcf1	-0.004329317
42	0xbd52072b	-0.051276367
43	0xbd8b8dc2	-0.068141475
44	0xbd730090	-0.05932671
45	0xbe1b5a69	-0.15171207
46	0xbc20e5a9	-0.00982038
47	0xbd20d5b8	-0.039266318
48	0x3cd892c3	0.026437169
49	0x3e4632e3	0.19355349
50	0xbd777fd5	-0.060424645
51	0xbe3980a5	-0.1811548
52	0x3cc0aeef	0.023520915
53	0x3defac37	0.11702769
54	0xbd4a7c5d	-0.04943501
55	0xbd2cee4d	-0.04221945
56	0xbd8269b5	-0.06367818
57	0xbe39f0c7	-0.18158256
58	0xbe3c695e	-0.1839957
59	0xbea5027e	-0.32228464
60	0x3cd3a139	0.025833713
61	0xbaf94450	-0.0019017551
62	0xbd3882f1	-0.04504675
63	0xbd124cb0	-0.035717666
64	0xbe1853b3	-0.14875679
65	0x3d96dfe7	0.07366925
66	0xbcd6c71e	-0.026217993
67	0x3d9221a7	0.07135325
68	0xbd957ce8	-0.072992146
69	0x3d389d32	0.045071788
70	0x3d42e35b	0.047580104
71	0x3dc05970	0.09392059
72	0xbd850b0e	-0.06496249
73	0xbd50d9bb	-0.050988894
74	0x3d40cb1e	0.047068708
75	0xbe8c582c	-0.2741102
76	0x3d024877	0.03180739
77	0xbd8cd290	-0.06876099
78	0xbb315706	-0.0027059927
79	0xbd687f01	-0.056761745
80	0x3df63d24	0.120233804
81	0x3cc93fc9	0.024566548
82	0xbde3a833	-0.11116066
83	0xb9f9080f	-0.00047498985
84	0xbe02f6dc	-0.12789482
85	0xbd8b3ad3	-0.06798329
86	0x3c6da3a9	0.014504352
87	0xbd059477	-0.03261229
88	0x3d0186cc	0.031622693
89	0xbeb64d1b	-0.35605702
90	0x3d5adeb0	0.053435028
91	0xbc44f1d7	-0.01202055
92	0x3c5534ac	0.013013046
93	0xbde9bfbf	-0.11413526
94	0xbe120c83	-0.14262585
95	0xbd82dc4c	-0.063896745
96	0xbd840e8c	-0.06448087
97	0x3df3b37e	0.1189947
98	0x3d3e03f9	0.046390507
99	0x3d82c467	0.06385117
100	0xbd26546f	-0.040607866
101	0xbe01a1ce	-0.1265938
102	0xbd943cc6	-0.07238154
103	0x3b9f5625	0.004862564
104	0xbdc21db1	-0.094783194
105	0xbe5143a1	-0.20435955
106	0x3d56325e	0.052294128
107	0x3dfaed04	0.122522384
108	0x3d26e814	0.04074867
109	0xbd9ec87d	-0.07753084
110	0x3b4ce12a	0.0031262138
111	0xbdaa7327	-0.08322745
112	0xbda92702	-0.08259393
113	0xbd027658	-0.031851143
114	0xbe058483	-0.1303883
115	0xbd736041	-0.059417967
116	0x3d5ff4a6	0.054676674
117	0xbcee28ed	-0.02907225
118	0xbd116abe	-0.035502188
119	0xbddbe7df	-0.10737585
120	0xbd2bf5d7	-0.041982498
121	0xbdb3a0d3	-0.08770909
122	0xbdaae08a	-0.08343609
123	0x3c25ecb4	0.010127235
124	0xbd982e52	-0.0743071
125	0x3dee27ea	0.11628707
126	0x3c93e3fe	0.018053051
127	0xbcfed478	-0.031107172
128	0x3cb4fb6d	0.022092545
129	0xbe4ae9af	-0.19815706
130	0x3cdca80d	0.026935602
131	0x3ccfd4bb	0.025369992
132	0xbe096571	-0.13417603
133	0xbc9de095	-0.019272128
134	0xbd065416	-0.032795034
135	0xbd566e24	-0.052351132
136	0x3e030314	0.12794143
137	0xbb013fa6	-0.0019721775
138	0xbdfbe0d5	-0.12298743
139	0x3c2c6ea0	0.010524422
140	0xbec19200	-0.37806702
141	0xbb8119a9	-0.0039398265
142	0x3d09a7f5	0.033607442
143	0x3d5f6a24	0.054544583
144	0x3c96c6dc	0.01840537
145	0x3ccbc352	0.02487341
146	0x3b23dec2	0.00250046
147	0xbe488791	-0.19582964
148	0x3de295b8	0.11063713
149	0xbd77a282	-0.060457714
150	0x3d9d7940	0.07689142
151	0x3dec9c98	0.115533054
152	0xbd23d373	-0.039996576
153	0xbd7a3990	-0.061090052
154	0xbd0f8c87	-0.035046127
155	0xbd67aeef	-0.056563314
156	0x3d121a5e	0.035669677
157	0xbd2e0005	-0.042480487
158	0xbda6863d	-0.08131073
159	0x3cd815a4	0.026377507
160	0x3d56f1c3	0.052476656
161	0xbdaf7519	-0.085672565
162	0xbc0c5da1	-0.008567245
163	0x3d044b65	0.032298464
164	0x3a55d88d	0.0008157574
165	0x3e38066e	0.17971203
166	0xbc3baad6	-0.011454305
167	0x3d4b888e	0.049690776
168	0x3d29440c	0.04132466
169	0x3db47ed5	0.08813254
170	0x3d421c4e	0.047390275
171	0x3bc6f3fb	0.006071565
172	0xbdfc958b	-0.123332106
173	0x3de85935	0.1134514
174	0xbd5f52a9	-0.05452219
175	0x3e1d0324	0.1533323
176	0xbe8cd007	-0.27502462
177	0xbeb8967c	-0.3605231
178	0xbd29fbd8	-0.041499943
179	0xbbebd20e	-0.0071966713
180	0x3dcf4ca9	0.10122044
181	0xbcf666a5	-0.030078242
182	0x3d2126d1	0.03934366
183	0xbd676afc	-0.056498513
184	0xbc821d34	-0.015883066
185	0x3ca337d9	0.019924091
186	0x3c93df41	0.018050792
187	0x3ce7ad4c	0.028280877
188	0x3dc1cd58	0.09462994
189	0xbc884730	-0.016635507
190	0x3d84977c	0.06474206
191	0xbc00e8d4	-0.007868011
192	0x3bffcd95	0.0078064897
193	0x3d300fb8	0.04298374
194	0xbe65fb06	-0.22459039
195	0x3d5b1820	0.053489804
196	0xbf126f2c	-0.57200885
197	0x3d7bf438	0.061512202
198	0x3e6a24a8	0.22865546
199	0x3db1d91b	0.08683988
200	0xbdc01049	-0.09378106
201	0x3dda107a	0.10647674
202	0xbcd6628e	-0.026170041
203	0xbdda4eb0	-0.1065954
204	0xbe0be6db	-0.13662283
205	0xbd75b78b	-0.059989493
206	0xbd9b0ebb	-0.07571169
207	0x3d469b96	0.048488222
208	0xbe928b90	-0.28622103
209	0xbb928dc3	-0.0044724657
210	0xba65f93e	-0.0008772797
211	0xbd060b6b	-0.032725733
212	0xbea21867	-0.31659243
213	0x3d494594	0.04913862
214	0xbd86b098	-0.06576651
215	0x3dd4d0f1	0.10391415
216	0x3c47f306	0.012203937
217	0xbd8d43a0	-0.06897664
218	0xbd282995	-0.04105528
219	0x3bb326de	0.00546728
220	0xbca40108	-0.020020023
221	0xbc5d6270	-0.013512239
222	0xbc8c558f	-0.017130641
223	0xbdb004c5	-0.0859466
224	0xbd9296e4	-0.07157686
225	0xbd2d22d9	-0.04226956
226	0xbdbcedc3	-0.09225037
227	0xbdfa7eb4	-0.12231198
228	0x3e8993b5	0.26870504
229	0x3c934920	0.017979205
230	0x3d9b54f7	0.07584565
231	0xbd59e332	-0.053195186
232	0x3d28ad41	0.041180853
233	0x3cb8028f	0.022462158
234	0xbd1e520b	-0.03865246
235	0x3d0c8e73	0.034315538
236	0xbd5e2b38	-0.054240435
237	0xbdc33f44	-0.09533551
238	0x3bc1435c	0.0058979224
239	0x3d722944	0.059121385
240	0xbd480f23	-0.04884256
241	0x3cd4e3f0	0.025987595
242	0x3d9dd127	0.07705908
243	0xbd275f3c	-0.040862307
244	0xbc24a22b	-0.0100484295
245	0x3d547dc4	0.051877752
246	0x3c86244a	0.016374726
247	0x3ce90c0c	0.028448127
248	0x3e085823	0.13314871
249	0x3dda28b3	0.10652294
250	0xbddf584b	-0.109055124
251	0xbc9b0824	-0.01892478
252	0x3ccf7c88	0.025327936
253	0x3d977d8b	0.07396992
254	0x3b66435d	0.0035135366
255	0x3d45af1c	0.0482627

linear2.bias f4 [43]
0	0xbe2f97b6	-0.17147717
1	0x3d83d3c7	0.06436878
2	0x3dcf301a	0.101165965
3	0x3d54c5d8	0.05194649
4	0xbd0552ef	-0.032549795
5	0x3dccf033	0.10006752
6	0x3d2573d3	0.04039366
7	0xbcdbd6ad	-0.026835764
8	0xbcc7a69a	-0.024371434
9	0x3d1a0d08	0.037610084
10	0x3d4d50bb	0.05012582
11	0x3d3bdbb4	0.045863822
12	0x3d546800	0.051856995
13	0x3b93087c	0.0044870954
14	0xbd0121b6	-0.03152629
15	0xbce9cf03	-0.028541094
16	0xbd58d79f	-0.052940007
17	0xbc34120a	-0.010990629
18	0x3c510d04	0.012759451
19	0xbdca913f	-0.09890985
20	0x3db8b545	0.090189494
21	0xbd634db7	-0.055494037
22	0xbdbcaf6c	-0.092131466
23	0x3bd2956e	0.006426505
24	0x3d41ccc4	0.04731442
25	0x3d58a948	0.052895814
26	0xbcab0b9f	-0.020879565
27	0x3d988c31	0.074486144
28	0xbccad640	-0.024760365
29	0xbd93f698	-0.072247684
30	0xbd7954a4	-0.060871735
31	0x3e051dbf	0.12999628
32	0x3dba66ed	0.09101663
33	0xbd2db033	-0.042404365
34	0xbe5ccc7f	-0.21562384
35	0xbdf3bcab	-0.1190122
36	0xbdf7eb7c	-0.12105462
37	0xbdd07e64	-0.10180357
38	0x3da06ab2	0.078328505
39	0xbcd8e24f	-0.0264751
40	0x3acd1e30	0.0015649255
41	0xbd5e44f5	-0.05426498
42	0xbd97cf9d	-0.07412646
